PyTorch/ch03-Logistic回归实现图像分类/models/mnist-logistic.pth (torch_old, 31964 bytes, 2 tensors)

linear.weight f4 [10, 784]
0	0xbc36f126	-0.011165893
1	0xbc354e52	-0.011066036
2	0xbbc931c8	-0.0061399676
3	0xbb8feec8	-0.0043924786
4	0x3c8c554c	0.017130516
5	0x3aba3b60	0.0014208369
6	0x3b17ae20	0.0023144558
7	0xbca60b9e	-0.020269211
8	0xbcd8b788	-0.026454702
9	0xbb89f038	-0.0042095445
10	0x3c699128	0.014255799
11	0x3cb51288	0.022103563
12	0x3d04fca6	0.032467507
13	0x3b4fecc3	0.0031726814
14	0x3c7b569f	0.015340476
15	0xbc85cda5	-0.01633341
16	0xbce45fca	-0.027877707
17	0xbc60a720	-0.013711721
18	0xbc69b3a6	-0.014264023
19	0xbd047dd5	-0.032346565
20	0x3cb73ee2	0.022368852
21	0x3d00150b	0.03127007
22	0xbccd9910	-0.0250974
23	0xbb3efb90	-0.0029141642
24	0xbcf500ca	-0.029907603
25	0x3d0f64df	0.035008308
26	0x3a7e1280	0.0009692088
27	0x3b92f200	0.004484415
28	0x3cb0e286	0.02159239
29	0xbcf82f1e	-0.030295905
30	0x3d0c5abb	0.034266215
31	0xbceff618	-0.029292151
32	0xbc88ac07	-0.016683592
33	0xbcf48325	-0.02984769
34	0x3d05a9f1	0.032632772
35	0xbc2f7c58	-0.010710798
36	0xba8befe4	-0.0010676351
37	0xbd0bd1ea	-0.034135737
38	0x3bd20308	0.0064090528
39	0x3d09fc0c	0.033687636
40	0xbc307115	-0.010769148
41	0x3ce84224	0.02835185
42	0xbcb88c47	-0.022527827
43	0x3cb61523	0.022226876
44	0xbb8145c8	-0.003945086
45	0xbc86126b	-0.016366204
46	0xbc8240a6	-0.015899967
47	0xbc63e84f	-0.013910367
48	0xbd07f05d	-0.033188213
49	0x3b8ddc11	0.0043292125
50	0xbcfa16f7	-0.030528529
51	0x3c692761	0.01423058
52	0x3cc9d346	0.024636876
53	0x3c736120	0.014854699
54	0xbcfa0b7c	-0.030523054
55	0xbceb563a	-0.02872764
56	0x3bc0e468	0.005886603
57	0x3c96c6c8	0.018405333
58	0x3d02a3f3	0.031894635
59	0xbd004645	-0.031317014
60	0xbcd854ba	-0.026407588
61	0x3bd132c8	0.0063842274
62	0xbd03da6f	-0.032190736
63	0xbc8d5853	-0.01725403
64	0xbb0cfba3	-0.0021512292
65	0x3caa3fd7	0.020782394
66	0x3774a227	1.4581287e-05
67	0xbd0a0c0a	-0.033702888
68	0x3c4e7d69	0.012603142
69	0xbc115e23	-0.008872542
70	0xbd018505	-0.031620998
71	0x3c29a169	0.010353425
72	0xbd014b13	-0.031565737
73	0xbb7a1f88	-0.0038165767
74	0x3cc0593f	0.023480056
75	0x3c7f0325	0.015564715
76	0x3cb3a3f0	0.021928757
77	0xbc8464cd	-0.016161347
78	0x39e898f6	0.00044364453
79	0x3cd3168c	0.025767587
80	0xbcb401e0	-0.02197355
81	0x3cb53b1c	0.022122912
82	0xbba17580	-0.004927337
83	0xbb084760	-0.0020794496
84	0xbc75ba5c	-0.014998045
85	0xbbc7eaa4	-0.0061009694
86	0x3b022290	0.0019857027
87	0x3b8f0ca1	0.004365519
88	0xbc786c6c	-0.015162569
89	0xbc4d7999	-0.012541198
90	0x3bdf2d9a	0.006810856
91	0xbb878573	-0.0041357814
92	0x3c3c2fd3	0.011486012
93	0xbc8da219	-0.017289208
94	0xbca92605	-0.020648012
95	0xbd16f63c	-0.03685592
96	0xbb86d3c1	-0.0041145985
97	0xbce7356e	-0.02822372
98	0xbcb5310b	-0.022118112
99	0xbd2568e9	-0.040383253
100	0x3c94c05c	0.01815813
101	0xbcbaba9d	-0.022794062
102	0xbc8ab3c6	-0.016931426
103	0x3c55744f	0.013028218
104	0xbc9e8c0c	-0.019353889
105	0x3cc6902c	0.024238668
106	0x3ab0011e	0.0013428067
107	0x3ca1b560	0.019739807
108	0xbcc81cc0	-0.024427772
109	0x3cad3163	0.021141713
110	0x3c385767	0.011251307
111	0xbcf680a1	-0.030090632
112	0x3b918348	0.004440699
113	0xbc3a2226	-0.011360681
114	0xbc2eda30	-0.010672137
115	0x3d113269	0.035448465
116	0xbd10c6b2	-0.03534574
117	0xbd11aa1e	-0.035562627
118	0x3cacd367	0.021096898
119	0x3ca4e1d8	0.020127222
120	0xbcc3de5d	-0.023909742
121	0x3bddd3ae	0.006769619
122	0x3c39595e	0.011312811
123	0x3c5418d8	0.012945376
124	0xbd051780	-0.032493114
125	0x3b9d3511	0.004797586
126	0xbb961b82	-0.004580916
127	0x3c49c049	0.012313911
128	0xbca0e30d	-0.019639516
129	0x3d2fe17e	0.042939655
130	0xbca3caf7	-0.019994242
131	0x3d18a199	0.037263487
132	0x3c07e688	0.008294709
133	0x3c4bcfdb	0.012439693
134	0xbcef1bdd	-0.029188091
135	0xbccfe93e	-0.025379773
136	0x3b100f32	0.0021981713
137	0xbbce5a30	-0.0062973723
138	0xbc07f1d1	-0.0082974
139	0xbd0f6f9c	-0.03501855
140	0xbb613500	-0.0034363866
141	0xbbadd9c8	-0.0053055026
142	0xbc42980c	-0.011877071
143	0xbc07e2b4	-0.008293796
144	0x3cb54861	0.02212924
145	0xbab1ac9b	-0.0013555469
146	0xbbcca504	-0.0062452573
147	0xbd0c9c4d	-0.034328748
148	0xbaf45e19	-0.0018643766
149	0x3ca8bba1	0.020597281
150	0xbcd6a160	-0.026199996
151	0x3cbab6f3	0.022792315
152	0xbc0fc99c	-0.008776095
153	0x3c4b89b2	0.012422966
154	0x3d115690	0.035482943
155	0x3b14529d	0.002263225
156	0x3cd716e4	0.026256032
157	0x3c93751d	0.01800018
158	0x3d171a2f	0.036890205
159	0xbbc8b2fc	-0.006124852
160	0x3bf5b759	0.0074986634
161	0xbc50e48a	-0.0127498
162	0xbd04990a	-0.032372512
163	0xbb768adc	-0.0037619388
164	0xbd08467a	-0.033270337
165	0xbc8478c2	-0.016170863
166	0x3d0ec9aa	0.03486029
167	0xbd051ef6	-0.03250023
168	0xbc59f320	-0.013302594
169	0xbc488230	-0.01223807
170	0x3a9a4979	0.0011771164
171	0x3b50f75e	0.0031885724
172	0xbc7d9b07	-0.015478856
173	0xbb8ec628	-0.004357118
174	0x3c675a4b	0.014120649
175	0xbce26bef	-0.027639357
176	0xbd35575b	-0.04427276
177	0xbd32ff98	-0.043700784
178	0xbd0cef0e	-0.034407668
179	0xbc124ea7	-0.008929885
180	0x3c070133	0.008240032
181	0xb9f2b3fb	-0.00046291933
182	0x3c0dd760	0.008657306
183	0x3d21f6f6	0.03954216
184	0x3d1c662f	0.038183387
185	0x3cc6afa3	0.024253672
186	0x3c945d5f	0.018110929
187	0x3d4af3b9	0.04954884
188	0x3c86fb23	0.016477173
189	0x3d15770a	0.036490478
190	0x3cce43b4	0.025178768
191	0x3ac4b115	0.0015006388
192	0x3bccfe40	0.006255895
193	0xbc5d1321	-0.01349333
194	0x3c9da202	0.01924229
195	0xbc15fe93	-0.0091549335
196	0xba9c1c1e	-0.0011910235
197	0x3bd359b9	0.0064499048
198	0xbcf6762a	-0.030085642
199	0xbb4ac6ed	-0.0030941323
200	0xbd084739	-0.03327105
201	0xbcf8baf5	-0.030362586
202	0xbcc6def8	-0.024276242
203	0x3c8d10fd	0.017220015
204	0xbd2d82e5	-0.04236116
205	0xbd2e9106	-0.042618774
206	0x3c2450bc	0.010029014
207	0xbcec2c3e	-0.02882969
208	0xbc1c28a4	-0.009531174
209	0x3c50a0b6	0.012733629
210	0x3cd32538	0.025774583
211	0x3d0d5291	0.03450257
212	0x3d851c53	0.06499543
213	0x3d1a50a5	0.037674565
214	0x3d17d1eb	0.037065428
215	0x3d441af5	0.04787727
216	0xbb1f8260	-0.0024339184
217	0x3cfb4295	0.030671397
218	0x3bc6f436	0.0060715927
219	0xbcfa9392	-0.030587945
220	0x3ca36f90	0.019950658
221	0x3cdce26b	0.026963433
222	0x3c46e220	0.012138873
223	0xbcaf3182	-0.021385912
224	0x3cfbff4b	0.030761382
225	0xbd10884a	-0.035286225
226	0x3d0ef8a1	0.03490508
227	0x3c08f31d	0.008358744
228	0x3c4e2295	0.012581487
229	0x3c747409	0.014920243
230	0x3cab15e6	0.020884465
231	0xbd12a9cb	-0.03580646
232	0xbce1adfe	-0.027548786
233	0xbd1d5dfd	-0.038419712
234	0xbbf48def	-0.007463209
235	0x3c209de4	0.009803269
236	0x3c8612df	0.01636642
237	0x3d186174	0.037202314
238	0x3ba5bca1	0.0050578867
239	0x3c98afa6	0.018638443
240	0x3c14a76d	0.009073121
241	0x3d46c593	0.048528265
242	0x3cb326ed	0.021869147
243	0x3d448d1e	0.047986142
244	0x3d963937	0.073351316
245	0x3c103c63	0.00880346
246	0x3d4d875f	0.050177928
247	0x3c6e330f	0.0145385405
248	0x3c95f1ed	0.018303836
249	0x3c9c66ce	0.01909199
250	0xbc2143af	-0.009842797
251	0xb995e07f	-0.00028586757
252	0xbabca836	-0.0014393392
253	0x3ca6f219	0.020379113
254	0x3c64d60f	0.013967051
255	0xbc072e1d	-0.00825074

linear.bias f4 [10]
0	0xbd8e0aad	-0.0693563
1	0x3d3e086e	0.046394758
2	0xbc740d51	-0.014895753
3	0xbbd5b775	-0.006522114
4	0x3ce3e7e9	0.027820544
5	0x3d10a35e	0.03531205
6	0xbb1223e5	-0.0022299227
7	0x3c9a8f77	0.018867237
8	0xbd6d6b2a	-0.057963528
9	0x3ce234ad	0.027613008
